…
 'fc_layer_7_extras': {'name': 'dropout', 'rate': 0.4994739694300948},
 'fc_layer_8_batchnorm': {'name': True},
 'fc_layer_8_extras': {'name': 'dropout', 'rate': 0.45938113480227305},
 'fc_layer_9_batchnorm': {'name': False},
 'fc_layer_9_extras': {'name': None},
 'init': 'standard',
 'input_size': 3000,
 'learnin_rate': 0.001,
 'margin': 2,
 'n_conv_layers': 5,
 'n_fc_layers': 2,
 'neurons': 256,
 'numberOfShots': 0,
 'optimizer': 'Adam',
 'time_shift': 250}

500
Load data...
Number of spectra in the data set 1435
Number of spectra in the data set 454
Done!

cuda:0
ParametricConvFCModel(
  (seq_layers): ModuleDict(
    (0): Conv1d(1, 16, kernel_size=(3,), stride=(2,))
    (1): BatchNorm1d(16, eps=1e-05, momentum=0.1, affine=True, track_running_stats=True)
    (2): MaxPool1d(kernel_size=3, stride=2, padding=0, dilation=1, ceil_mode=False)
    (3): Conv1d(16, 32, kernel_size=(3,), stride=(1,))
    (4): MaxPool1d(kernel_size=3, stride=1, padding=0, dilation=1, ceil_mode=False)
    (5): Conv1d(32, 128, kernel_size=(4,), stride=(2,))
    (6): MaxPool1d(kernel_size=2, stride=2, padding=0, dilation=1, ceil_mode=False)
    (7): Conv1d(128, 256, kernel_size=(3,), stride=(1,))
    (8): BatchNorm1d(256, eps=1e-05, momentum=0.1, affine=True, track_running_stats=True)
    (9): MaxPool1d(kernel_size=2, stride=2, padding=0, dilation=1, ceil_mode=False)
    (10): Conv1d(256, 256, kernel_size=(4,), stride=(1,))
    (11): BatchNorm1d(256, eps=1e-05, momentum=0.1, affine=True, track_running_stats=True)
    (12): MaxPool1d(kernel_size=3, stride=2, padding=0, dilation=1, ceil_mode=False)
    (13): Dropout(p=0.47506003010800224, inplace=False)
    (14): Linear(in_features=11008, out_features=256, bias=True)
    (15): Linear(in_features=256, out_features=256, bias=True)
    (16): Linear(in_features=256, out_features=1, bias=True)
  )
)
****************************************************
************* epoch  0 ***************************
****************************************************
loss function at mini-batch iteration 0 : 3.892737865447998
loss function at mini-batch iteration 18 : 0.9064332246780396
loss function at mini-batch iteration 36 : 0.7640331387519836
loss function at mini-batch iteration 54 : 0.43563127517700195
…
