…
 'fc_layer_7_batchnorm': {'name': True},
 'fc_layer_7_extras': {'name': 'dropout', 'rate': 0.5366566704227451},
 'fc_layer_8_batchnorm': {'name': False},
 'fc_layer_8_extras': {'name': None},
 'fc_layer_9_batchnorm': {'name': True},
 'fc_layer_9_extras': {'name': None},
 'init': 'standard',
 'input_size': 2000,
 'learnin_rate': 0.001,
 'margin': 0.3,
 'n_conv_layers': 5,
 'n_fc_layers': 3,
 'neurons': 64,
 'numberOfShots': 0,
 'optimizer': 'Adam',
 'time_shift': 150}

500
Load data...
Number of spectra in the data set 1435
Number of spectra in the data set 454
Done!

cuda:0
ParametricConvFCModel(
  (seq_layers): ModuleDict(
    (0): BatchNorm1d(1, eps=1e-05, momentum=0.1, affine=True, track_running_stats=True)
    (1): Conv1d(1, 8, kernel_size=(4,), stride=(1,))
    (2): BatchNorm1d(8, eps=1e-05, momentum=0.1, affine=True, track_running_stats=True)
    (3): MaxPool1d(kernel_size=3, stride=1, padding=0, dilation=1, ceil_mode=False)
    (4): Conv1d(8, 32, kernel_size=(3,), stride=(2,))
    (5): BatchNorm1d(32, eps=1e-05, momentum=0.1, affine=True, track_running_stats=True)
    (6): MaxPool1d(kernel_size=3, stride=2, padding=0, dilation=1, ceil_mode=False)
    (7): Conv1d(32, 64, kernel_size=(4,), stride=(1,))
    (8): MaxPool1d(kernel_size=3, stride=1, padding=0, dilation=1, ceil_mode=False)
    (9): Conv1d(64, 128, kernel_size=(3,), stride=(2,))
    (10): MaxPool1d(kernel_size=2, stride=2, padding=0, dilation=1, ceil_mode=False)
    (11): Conv1d(128, 128, kernel_size=(3,), stride=(2,))
    (12): MaxPool1d(kernel_size=2, stride=1, padding=0, dilation=1, ceil_mode=False)
    (13): Dropout(p=0.4490915612887155, inplace=False)
    (14): Linear(in_features=7680, out_features=64, bias=True)
    (15): Linear(in_features=64, out_features=64, bias=True)
    (16): Linear(in_features=64, out_features=64, bias=True)
    (17): Linear(in_features=64, out_features=1, bias=True)
  )
)
****************************************************
************* epoch  0 ***************************
****************************************************
loss function at mini-batch iteration 0 : 4.486258506774902
loss function at mini-batch iteration 18 : 0.6114828586578369
loss function at mini-batch iteration 36 : 0.4365618824958801
loss function at mini-batch iteration 54 : 0.47087782621383667
…
