…
 'fc_layer_7_extras': {'name': 'dropout', 'rate': 0.4593182715262395},
 'fc_layer_8_batchnorm': {'name': True},
 'fc_layer_8_extras': {'name': None},
 'fc_layer_9_batchnorm': {'name': True},
 'fc_layer_9_extras': {'name': 'dropout', 'rate': 0.22277173929029842},
 'init': 'standard',
 'input_size': 5000,
 'learnin_rate': 0.001,
 'margin': 1.4,
 'n_conv_layers': 8,
 'n_fc_layers': 5,
 'neurons': 256,
 'numberOfShots': 0,
 'optimizer': 'Adam',
 'time_shift': 50}

500
Load data...
Number of spectra in the data set 1435
Number of spectra in the data set 454
Done!

cuda:0
ParametricConvFCModel(
  (seq_layers): ModuleDict(
    (0): Conv1d(1, 4, kernel_size=(4,), stride=(1,))
    (1): BatchNorm1d(4, eps=1e-05, momentum=0.1, affine=True, track_running_stats=True)
    (2): MaxPool1d(kernel_size=2, stride=2, padding=0, dilation=1, ceil_mode=False)
    (3): Conv1d(4, 4, kernel_size=(3,), stride=(1,))
    (4): MaxPool1d(kernel_size=3, stride=2, padding=0, dilation=1, ceil_mode=False)
    (5): Conv1d(4, 4, kernel_size=(5,), stride=(1,))
    (6): BatchNorm1d(4, eps=1e-05, momentum=0.1, affine=True, track_running_stats=True)
    (7): MaxPool1d(kernel_size=3, stride=2, padding=0, dilation=1, ceil_mode=False)
    (8): Conv1d(4, 16, kernel_size=(3,), stride=(1,))
    (9): MaxPool1d(kernel_size=3, stride=1, padding=0, dilation=1, ceil_mode=False)
    (10): Conv1d(16, 16, kernel_size=(5,), stride=(1,))
    (11): MaxPool1d(kernel_size=3, stride=2, padding=0, dilation=1, ceil_mode=False)
    (12): Conv1d(16, 64, kernel_size=(5,), stride=(2,))
    (13): MaxPool1d(kernel_size=2, stride=2, padding=0, dilation=1, ceil_mode=False)
    (14): Conv1d(64, 64, kernel_size=(5,), stride=(1,))
    (15): MaxPool1d(kernel_size=3, stride=2, padding=0, dilation=1, ceil_mode=False)
    (16): Conv1d(64, 128, kernel_size=(3,), stride=(1,))
    (17): BatchNorm1d(128, eps=1e-05, momentum=0.1, affine=True, track_running_stats=True)
    (18): MaxPool1d(kernel_size=3, stride=1, padding=0, dilation=1, ceil_mode=False)
    (19): Dropout(p=0.17101860144292985, inplace=False)
    (20): Linear(in_features=3968, out_features=256, bias=True)
    (21): BatchNorm1d(256, eps=1e-05, momentum=0.1, affine=True, track_running_stats=True)
    (22): Dropout(p=0.6743674860647083, inplace=False)
    (23): Linear(in_features=256, out_features=256, bias=True)
    (24): BatchNorm1d(256, eps=1e-05, momentum=0.1, affine=True, track_running_stats=True)
    (25): Linear(in_features=256, out_features=256, bias=True)
    (26): BatchNorm1d(256, eps=1e-05, momentum=0.1, affine=True, track_running_stats=True)
    (27): Linear(in_features=256, out_features=256, bias=True)
    (28): BatchNorm1d(256, eps=1e-05, momentum=0.1, affine=True, track_running_stats=True)
    (29): Linear(in_features=256, out_features=256, bias=True)
    (30): Linear(in_features=256, out_features=1, bias=True)
  )
)
****************************************************
************* epoch  0 ***************************
****************************************************
loss function at mini-batch iteration 0 : 3.5468437671661377
loss function at mini-batch iteration 9 : 0.8417789936065674
loss function at mini-batch iteration 18 : 0.616084098815918
loss function at mini-batch iteration 27 : 0.5786013603210449
…
